Model: "sequential"
_________________________________________________________________
 Layer (type)                Output Shape              Param #   
=================================================================
 flatten (Flatten)           (None, 1690)              0         
                                                                 
 dense (Dense)               (None, 512)               865792    
                                                                 
 dense_1 (Dense)             (None, 256)               131328    
                                                                 
 dense_2 (Dense)             (None, 64)                16448     
                                                                 
 dense_3 (Dense)             (None, 10)                650       
                                                                 
=================================================================
Total params: 1,014,218
Trainable params: 1,014,218
Non-trainable params: 0
_________________________________________________________________
Epoch 1/50
  1/219 [..............................] - ETA: 2:18 - loss: 95.1432 - accuracy: 0.0938
…
